…
I0511 10:11:36.677217 27527 net.cpp:58] Initializing net from parameters: 
name: "alexnet10"
state {
  phase: TRAIN
  level: 0
  stage: ""
}
layer {
  name: "data"
  type: "Data"
  top: "data"
  top: "label"
  include {
    phase: TRAIN
  }
  transform_param {
    mirror: true
    crop_size: 223
    mean_file: "../convert_leveldb/leveldb_backup/0508_224_merged (3rd copy)/vehcolor_mean_train.binaryproto"
  }
  data_param {
    source: "../convert_leveldb/leveldb_backup/0508_224_merged (3rd copy)/vehcolor_train_leveldb"
    batch_size: 256
    backend: LEVELDB
  }
}
layer {
  name: "conv1"
  type: "Convolution"
  bottom: "data"
  top: "conv1"
  param {
    lr_mult: 1
    decay_mult: 1
  }
  param {
    lr_mult: 2
    decay_mult: 0
  }
  convolution_param {
    num_output: 96
    pad: 2
    kernel_size: 11
    stride: 4
    weight_filler {
      type: "gaussian"
      std: 0.01
    }
    bias_filler {
      type: "constant"
      value: 1
    }
  }
}
layer {
  name: "relu1"
  type: "ReLU"
  bottom: "conv1"
  top: "conv1"
}
layer {
  name: "pool1"
  type: "Pooling"
  bottom: "conv1"
  top: "pool1"
  pooling_param {
    pool: MAX
    kernel_size: 3
    stride: 2
  }
}
layer {
  name: "norm1"
  type: "LRN"
  bottom: "pool1"
  top: "norm1"
  lrn_param {
    local_size: 5
    alpha: 0.0001
    beta: 0.75
  }
}
layer {
  name: "conv2_1"
  type: "Convolution"
  bottom: "norm1"
  top: "conv2_1"
  param {
    lr_mult: 1
    decay_mult: 1
  }
  param {
    lr_mult: 2
    decay_mult: 0
  }
  convolution_param {
    num_output: 256
    pad: 2
    kernel_size: 5
    group: 2
    weight_filler {
      type: "gaussian"
      std: 0.01
    }
    bias_filler {
      type: "constant"
      value: 1
    }
  }
}
layer {
  name: "relu2_1"
  type: "ReLU"
  bottom: "conv2_1"
  top: "conv2_1"
}
layer {
  name: "conv2_2"
  type: "Convolution"
  bottom: "conv2_1"
  top: "conv2_2"
  param {
    lr_mult: 1
    decay_mult: 1
  }
  param {
    lr_mult: 2
    decay_mult: 0
  }
  convolution_param {
    num_output: 256
    pad: 2
    kernel_size: 5
    group: 2
    weight_filler {
      type: "gaussian"
      std: 0.01
    }
    bias_filler {
      type: "constant"
      value: 1
    }
  }
}
layer {
  name: "relu2_2"
  type: "ReLU"
  bottom: "conv2_2"
  top: "conv2_2"
}
layer {
  name: "pool2"
  type: "Pooling"
  bottom: "conv2_2"
  top: "pool2"
  pooling_param {
    pool: MAX
    kernel_size: 3
    stride: 2
  }
}
layer {
  name: "norm2"
  type: "LRN"
  bottom: "pool2"
  top: "norm2"
  lrn_param {
    local_size: 5
    alpha: 0.0001
    beta: 0.75
  }
}
layer {
  name: "conv3"
  type: "Convolution"
  bottom: "norm2"
  top: "conv3"
  param {
    lr_mult: 1
    decay_mult: 1
  }
  param {
    lr_mult: 2
    decay_mult: 0
  }
  convolution_param {
    num_output: 384
    pad: 1
    kernel_size: 3
    weight_filler {
      type: "gaussian"
      std: 0.01
    }
    bias_filler {
      type: "constant"
      value: 1
    }
  }
}
layer {
  name: "relu3"
  type: "ReLU"
  bottom: "conv3"
  top: "conv3"
}
layer {
  name: "conv4"
  type: "Convolution"
  bottom: "conv3"
  top: "conv4"
  param {
    lr_mult: 1
    decay_mult: 1
  }
  param {
    lr_mult: 2
    decay_mult: 0
  }
  convolution_param {
    num_output: 384
    pad: 1
    kernel_size: 3
    group: 2
    weight_filler {
      type: "gaussian"
      std: 0.01
    }
    bias_filler {
      type: "constant"
      value: 1
    }
  }
}
layer {
  name: "relu4"
  type: "ReLU"
  bottom: "conv4"
  top: "conv4"
}
layer {
  name: "conv5_1"
  type: "Convolution"
  bottom: "conv4"
  top: "conv5_1"
  param {
    lr_mult: 1
    decay_mult: 1
  }
  param {
    lr_mult: 2
    decay_mult: 0
  }
  convolution_param {
    num_output: 256
    pad: 1
    kernel_size: 3
    group: 2
    weight_filler {
      type: "gaussian"
      std: 0.01
    }
    bias_filler {
      type: "constant"
      value: 1
    }
  }
}
layer {
  name: "relu5_1"
  type: "ReLU"
  bottom: "conv5_1"
  top: "conv5_1"
}
layer {
  name: "conv5_2"
  type: "Convolution"
  bottom: "conv5_1"
  top: "conv5_2"
  param {
    lr_mult: 1
    decay_mult: 1
  }
  param {
    lr_mult: 2
    decay_mult: 0
  }
  convolution_param {
    num_output: 256
    pad: 1
    kernel_size: 3
    group: 2
    weight_filler {
      type: "gaussian"
      std: 0.01
    }
    bias_filler {
      type: "constant"
      value: 1
    }
  }
}
layer {
  name: "relu5_2"
  type: "ReLU"
  bottom: "conv5_2"
  top: "conv5_2"
}
layer {
  name: "pool5"
  type: "Pooling"
  bottom: "conv5_2"
  top: "pool5"
  pooling_param {
    pool: MAX
    kernel_size: 3
    stride: 2
  }
}
layer {
  name: "fc6"
  type: "InnerProduct"
  bottom: "pool5"
  top: "fc6"
  param {
    lr_mult: 1
    decay_mult: 1
  }
  param {
    lr_mult: 2
    decay_mult: 0
  }
  inner_product_param {
    num_output: 4096
    weight_filler {
      type: "gaussian"
      std: 0.005
    }
    bias_filler {
      type: "constant"
      value: 1
    }
  }
}
layer {
  name: "relu6"
  type: "ReLU"
  bottom: "fc6"
  top: "fc6"
}
layer {
  name: "drop6"
  type: "Dropout"
  bottom: "fc6"
  top: "fc6"
  dropout_param {
    dropout_ratio: 0.5
  }
}
layer {
  name: "fc7"
  type: "InnerProduct"
  bottom: "fc6"
  top: "fc7"
  param {
    lr_mult: 1
    decay_mult: 1
  }
  param {
    lr_mult: 2
    decay_mult: 0
  }
  inner_product_param {
    num_output: 4096
    weight_filler {
      type: "gaussian"
      std: 0.005
    }
    bias_filler {
      type: "constant"
      value: 1
    }
  }
}
layer {
  name: "relu7"
  type: "ReLU"
  bottom: "fc7"
  top: "fc7"
}
layer {
  name: "drop7"
  type: "Dropout"
  bottom: "fc7"
  top: "fc7"
  dropout_param {
    dropout_ratio: 0.5
  }
}
layer {
  name: "fc8"
  type: "InnerProduct"
  bottom: "fc7"
  top: "fc8"
  param {
    lr_mult: 1
    decay_mult: 1
  }
  param {
    lr_mult: 2
    decay_mult: 0
  }
  inner_product_param {
    num_output: 15
    weight_filler {
      type: "gaussian"
      std: 0.01
    }
    bias_filler {
      type: "constant"
      value: 0
    }
  }
}
layer {
  name: "loss"
  type: "SoftmaxWithLoss"
  bottom: "fc8"
  bottom: "label"
  top: "loss"
}
I0511 10:11:36.678946 27527 layer_factory.hpp:77] Creating layer data
I0511 10:11:36.679667 27527 net.cpp:100] Creating Layer data
I0511 10:11:36.679690 27527 net.cpp:408] data -> data
I0511 10:11:36.679723 27527 net.cpp:408] data -> label
I0511 10:11:36.679749 27527 data_transformer.cpp:25] Loading mean file from: ../convert_leveldb/leveldb_backup/0508_224_merged (3rd copy)/vehcolor_mean_train.binaryproto
I0511 10:11:36.790921 27578 db_leveldb.cpp:18] Opened leveldb ../convert_leveldb/leveldb_backup/0508_224_merged (3rd copy)/vehcolor_train_leveldb
I0511 10:11:36.791790 27527 data_layer.cpp:41] output data size: 256,3,223,223
I0511 10:11:37.124550 27527 net.cpp:150] Setting up data
I0511 10:11:37.124701 27527 net.cpp:157] Top shape: 256 3 223 223 (38191872)
I0511 10:11:37.124722 27527 net.cpp:157] Top shape: 256 (256)
I0511 10:11:37.124732 27527 net.cpp:165] Memory required for data: 152768512
I0511 10:11:37.124781 27527 layer_factory.hpp:77] Creating layer conv1
I0511 10:11:37.125890 27527 net.cpp:100] Creating Layer conv1
I0511 10:11:37.125929 27527 net.cpp:434] conv1 <- data
I0511 10:11:37.125994 27527 net.cpp:408] conv1 -> conv1
I0511 10:11:37.144248 27527 net.cpp:150] Setting up conv1
I0511 10:11:37.144311 27527 net.cpp:157] Top shape: 256 96 55 55 (74342400)
I0511 10:11:37.144326 27527 net.cpp:165] Memory required for data: 450138112
I0511 10:11:37.144361 27527 layer_factory.hpp:77] Creating layer relu1
I0511 10:11:37.144389 27527 net.cpp:100] Creating Layer relu1
I0511 10:11:37.144403 27527 net.cpp:434] relu1 <- conv1
I0511 10:11:37.144420 27527 net.cpp:395] relu1 -> conv1 (in-place)
I0511 10:11:37.144449 27527 net.cpp:150] Setting up relu1
I0511 10:11:37.144464 27527 net.cpp:157] Top shape: 256 96 55 55 (74342400)
I0511 10:11:37.144475 27527 net.cpp:165] Memory required for data: 747507712
I0511 10:11:37.144487 27527 layer_factory.hpp:77] Creating layer pool1
I0511 10:11:37.144507 27527 net.cpp:100] Creating Layer pool1
I0511 10:11:37.144520 27527 net.cpp:434] pool1 <- conv1
I0511 10:11:37.144534 27527 net.cpp:408] pool1 -> pool1
I0511 10:11:37.144623 27527 net.cpp:150] Setting up pool1
I0511 10:11:37.144644 27527 net.cpp:157] Top shape: 256 96 27 27 (17915904)
I0511 10:11:37.144656 27527 net.cpp:165] Memory required for data: 819171328
I0511 10:11:37.144667 27527 layer_factory.hpp:77] Creating layer norm1
I0511 10:11:37.144690 27527 net.cpp:100] Creating Layer norm1
I0511 10:11:37.144701 27527 net.cpp:434] norm1 <- pool1
I0511 10:11:37.144714 27527 net.cpp:408] norm1 -> norm1
I0511 10:11:37.144804 27527 net.cpp:150] Setting up norm1
I0511 10:11:37.144824 27527 net.cpp:157] Top shape: 256 96 27 27 (17915904)
I0511 10:11:37.144836 27527 net.cpp:165] Memory required for data: 890834944
I0511 10:11:37.144847 27527 layer_factory.hpp:77] Creating layer conv2_1
I0511 10:11:37.144872 27527 net.cpp:100] Creating Layer conv2_1
I0511 10:11:37.144886 27527 net.cpp:434] conv2_1 <- norm1
I0511 10:11:37.144902 27527 net.cpp:408] conv2_1 -> conv2_1
I0511 10:11:37.159287 27527 net.cpp:150] Setting up conv2_1
I0511 10:11:37.159327 27527 net.cpp:157] Top shape: 256 256 27 27 (47775744)
I0511 10:11:37.159338 27527 net.cpp:165] Memory required for data: 1081937920
I0511 10:11:37.159361 27527 layer_factory.hpp:77] Creating layer relu2_1
I0511 10:11:37.159423 27527 net.cpp:100] Creating Layer relu2_1
I0511 10:11:37.159435 27527 net.cpp:434] relu2_1 <- conv2_1
I0511 10:11:37.159451 27527 net.cpp:395] relu2_1 -> conv2_1 (in-place)
I0511 10:11:37.159471 27527 net.cpp:150] Setting up relu2_1
I0511 10:11:37.159483 27527 net.cpp:157] Top shape: 256 256 27 27 (47775744)
I0511 10:11:37.159495 27527 net.cpp:165] Memory required for data: 1273040896
I0511 10:11:37.159507 27527 layer_factory.hpp:77] Creating layer conv2_2
I0511 10:11:37.159533 27527 net.cpp:100] Creating Layer conv2_2
I0511 10:11:37.159545 27527 net.cpp:434] conv2_2 <- conv2_1
I0511 10:11:37.159564 27527 net.cpp:408] conv2_2 -> conv2_2
I0511 10:11:37.192945 27527 net.cpp:150] Setting up conv2_2
I0511 10:11:37.192988 27527 net.cpp:157] Top shape: 256 256 27 27 (47775744)
I0511 10:11:37.192999 27527 net.cpp:165] Memory required for data: 1464143872
I0511 10:11:37.193019 27527 layer_factory.hpp:77] Creating layer relu2_2
I0511 10:11:37.193039 27527 net.cpp:100] Creating Layer relu2_2
I0511 10:11:37.193051 27527 net.cpp:434] relu2_2 <- conv2_2
I0511 10:11:37.193064 27527 net.cpp:395] relu2_2 -> conv2_2 (in-place)
I0511 10:11:37.193080 27527 net.cpp:150] Setting up relu2_2
I0511 10:11:37.193102 27527 net.cpp:157] Top shape: 256 256 27 27 (47775744)
I0511 10:11:37.193112 27527 net.cpp:165] Memory required for data: 1655246848
I0511 10:11:37.193121 27527 layer_factory.hpp:77] Creating layer pool2
I0511 10:11:37.193135 27527 net.cpp:100] Creating Layer pool2
I0511 10:11:37.193192 27527 net.cpp:434] pool2 <- conv2_2
I0511 10:11:37.193205 27527 net.cpp:408] pool2 -> pool2
I0511 10:11:37.193295 27527 net.cpp:150] Setting up pool2
I0511 10:11:37.193313 27527 net.cpp:157] Top shape: 256 256 13 13 (11075584)
I0511 10:11:37.193323 27527 net.cpp:165] Memory required for data: 1699549184
I0511 10:11:37.193332 27527 layer_factory.hpp:77] Creating layer norm2
I0511 10:11:37.193348 27527 net.cpp:100] Creating Layer norm2
I0511 10:11:37.193358 27527 net.cpp:434] norm2 <- pool2
I0511 10:11:37.193370 27527 net.cpp:408] norm2 -> norm2
I0511 10:11:37.193420 27527 net.cpp:150] Setting up norm2
I0511 10:11:37.193435 27527 net.cpp:157] Top shape: 256 256 13 13 (11075584)
I0511 10:11:37.193445 27527 net.cpp:165] Memory required for data: 1743851520
I0511 10:11:37.193454 27527 layer_factory.hpp:77] Creating layer conv3
I0511 10:11:37.193475 27527 net.cpp:100] Creating Layer conv3
I0511 10:11:37.193485 27527 net.cpp:434] conv3 <- norm2
I0511 10:11:37.193498 27527 net.cpp:408] conv3 -> conv3
I0511 10:11:37.225543 27527 net.cpp:150] Setting up conv3
I0511 10:11:37.225574 27527 net.cpp:157] Top shape: 256 384 13 13 (16613376)
I0511 10:11:37.225584 27527 net.cpp:165] Memory required for data: 1810305024
I0511 10:11:37.225596 27527 layer_factory.hpp:77] Creating layer relu3
I0511 10:11:37.225611 27527 net.cpp:100] Creating Layer relu3
I0511 10:11:37.225620 27527 net.cpp:434] relu3 <- conv3
I0511 10:11:37.225631 27527 net.cpp:395] relu3 -> conv3 (in-place)
I0511 10:11:37.225646 27527 net.cpp:150] Setting up relu3
I0511 10:11:37.225656 27527 net.cpp:157] Top shape: 256 384 13 13 (16613376)
I0511 10:11:37.225666 27527 net.cpp:165] Memory required for data: 1876758528
I0511 10:11:37.225680 27527 layer_factory.hpp:77] Creating layer conv4
I0511 10:11:37.225698 27527 net.cpp:100] Creating Layer conv4
I0511 10:11:37.225708 27527 net.cpp:434] conv4 <- conv3
I0511 10:11:37.225719 27527 net.cpp:408] conv4 -> conv4
I0511 10:11:37.249464 27527 net.cpp:150] Setting up conv4
I0511 10:11:37.249492 27527 net.cpp:157] Top shape: 256 384 13 13 (16613376)
I0511 10:11:37.249501 27527 net.cpp:165] Memory required for data: 1943212032
I0511 10:11:37.249521 27527 layer_factory.hpp:77] Creating layer relu4
I0511 10:11:37.249536 27527 net.cpp:100] Creating Layer relu4
I0511 10:11:37.249547 27527 net.cpp:434] relu4 <- conv4
I0511 10:11:37.249562 27527 net.cpp:395] relu4 -> conv4 (in-place)
I0511 10:11:37.249574 27527 net.cpp:150] Setting up relu4
I0511 10:11:37.249596 27527 net.cpp:157] Top shape: 256 384 13 13 (16613376)
I0511 10:11:37.249605 27527 net.cpp:165] Memory required for data: 2009665536
I0511 10:11:37.249615 27527 layer_factory.hpp:77] Creating layer conv5_1
I0511 10:11:37.249632 27527 net.cpp:100] Creating Layer conv5_1
I0511 10:11:37.249641 27527 net.cpp:434] conv5_1 <- conv4
I0511 10:11:37.249655 27527 net.cpp:408] conv5_1 -> conv5_1
I0511 10:11:37.265872 27527 net.cpp:150] Setting up conv5_1
I0511 10:11:37.265900 27527 net.cpp:157] Top shape: 256 256 13 13 (11075584)
I0511 10:11:37.265909 27527 net.cpp:165] Memory required for data: 2053967872
I0511 10:11:37.265923 27527 layer_factory.hpp:77] Creating layer relu5_1
I0511 10:11:37.265939 27527 net.cpp:100] Creating Layer relu5_1
I0511 10:11:37.265949 27527 net.cpp:434] relu5_1 <- conv5_1
I0511 10:11:37.265961 27527 net.cpp:395] relu5_1 -> conv5_1 (in-place)
I0511 10:11:37.265974 27527 net.cpp:150] Setting up relu5_1
I0511 10:11:37.265987 27527 net.cpp:157] Top shape: 256 256 13 13 (11075584)
I0511 10:11:37.265996 27527 net.cpp:165] Memory required for data: 2098270208
I0511 10:11:37.266005 27527 layer_factory.hpp:77] Creating layer conv5_2
I0511 10:11:37.266021 27527 net.cpp:100] Creating Layer conv5_2
I0511 10:11:37.266031 27527 net.cpp:434] conv5_2 <- conv5_1
I0511 10:11:37.266043 27527 net.cpp:408] conv5_2 -> conv5_2
I0511 10:11:37.277413 27527 net.cpp:150] Setting up conv5_2
I0511 10:11:37.277441 27527 net.cpp:157] Top shape: 256 256 13 13 (11075584)
I0511 10:11:37.277449 27527 net.cpp:165] Memory required for data: 2142572544
I0511 10:11:37.277462 27527 layer_factory.hpp:77] Creating layer relu5_2
I0511 10:11:37.277503 27527 net.cpp:100] Creating Layer relu5_2
I0511 10:11:37.277513 27527 net.cpp:434] relu5_2 <- conv5_2
I0511 10:11:37.277525 27527 net.cpp:395] relu5_2 -> conv5_2 (in-place)
I0511 10:11:37.277539 27527 net.cpp:150] Setting up relu5_2
I0511 10:11:37.277550 27527 net.cpp:157] Top shape: 256 256 13 13 (11075584)
I0511 10:11:37.277559 27527 net.cpp:165] Memory required for data: 2186874880
I0511 10:11:37.277568 27527 layer_factory.hpp:77] Creating layer pool5
I0511 10:11:37.277580 27527 net.cpp:100] Creating Layer pool5
I0511 10:11:37.277590 27527 net.cpp:434] pool5 <- conv5_2
I0511 10:11:37.277601 27527 net.cpp:408] pool5 -> pool5
I0511 10:11:37.277653 27527 net.cpp:150] Setting up pool5
I0511 10:11:37.277675 27527 net.cpp:157] Top shape: 256 256 6 6 (2359296)
I0511 10:11:37.277684 27527 net.cpp:165] Memory required for data: 2196312064
I0511 10:11:37.277693 27527 layer_factory.hpp:77] Creating layer fc6
I0511 10:11:37.277715 27527 net.cpp:100] Creating Layer fc6
I0511 10:11:37.277725 27527 net.cpp:434] fc6 <- pool5
I0511 10:11:37.277739 27527 net.cpp:408] fc6 -> fc6
I0511 10:11:38.492523 27527 net.cpp:150] Setting up fc6
I0511 10:11:38.492595 27527 net.cpp:157] Top shape: 256 4096 (1048576)
I0511 10:11:38.492605 27527 net.cpp:165] Memory required for data: 2200506368
I0511 10:11:38.492625 27527 layer_factory.hpp:77] Creating layer relu6
I0511 10:11:38.492656 27527 net.cpp:100] Creating Layer relu6
I0511 10:11:38.492667 27527 net.cpp:434] relu6 <- fc6
I0511 10:11:38.492682 27527 net.cpp:395] relu6 -> fc6 (in-place)
I0511 10:11:38.492710 27527 net.cpp:150] Setting up relu6
I0511 10:11:38.492720 27527 net.cpp:157] Top shape: 256 4096 (1048576)
I0511 10:11:38.492727 27527 net.cpp:165] Memory required for data: 2204700672
I0511 10:11:38.492735 27527 layer_factory.hpp:77] Creating layer drop6
I0511 10:11:38.492749 27527 net.cpp:100] Creating Layer drop6
I0511 10:11:38.492761 27527 net.cpp:434] drop6 <- fc6
I0511 10:11:38.492770 27527 net.cpp:395] drop6 -> fc6 (in-place)
I0511 10:11:38.492810 27527 net.cpp:150] Setting up drop6
I0511 10:11:38.492820 27527 net.cpp:157] Top shape: 256 4096 (1048576)
I0511 10:11:38.492828 27527 net.cpp:165] Memory required for data: 2208894976
I0511 10:11:38.492836 27527 layer_factory.hpp:77] Creating layer fc7
I0511 10:11:38.492858 27527 net.cpp:100] Creating Layer fc7
I0511 10:11:38.492867 27527 net.cpp:434] fc7 <- fc6
I0511 10:11:38.492882 27527 net.cpp:408] fc7 -> fc7
I0511 10:11:39.105306 27527 net.cpp:150] Setting up fc7
I0511 10:11:39.105372 27527 net.cpp:157] Top shape: 256 4096 (1048576)
I0511 10:11:39.105384 27527 net.cpp:165] Memory required for data: 2213089280
I0511 10:11:39.105419 27527 layer_factory.hpp:77] Creating layer relu7
I0511 10:11:39.105442 27527 net.cpp:100] Creating Layer relu7
I0511 10:11:39.105453 27527 net.cpp:434] relu7 <- fc7
I0511 10:11:39.105473 27527 net.cpp:395] relu7 -> fc7 (in-place)
I0511 10:11:39.105492 27527 net.cpp:150] Setting up relu7
I0511 10:11:39.105504 27527 net.cpp:157] Top shape: 256 4096 (1048576)
I0511 10:11:39.105511 27527 net.cpp:165] Memory required for data: 2217283584
I0511 10:11:39.105520 27527 layer_factory.hpp:77] Creating layer drop7
I0511 10:11:39.105535 27527 net.cpp:100] Creating Layer drop7
I0511 10:11:39.105542 27527 net.cpp:434] drop7 <- fc7
I0511 10:11:39.105554 27527 net.cpp:395] drop7 -> fc7 (in-place)
I0511 10:11:39.105584 27527 net.cpp:150] Setting up drop7
I0511 10:11:39.105623 27527 net.cpp:157] Top shape: 256 4096 (1048576)
I0511 10:11:39.105633 27527 net.cpp:165] Memory required for data: 2221477888
I0511 10:11:39.105641 27527 layer_factory.hpp:77] Creating layer fc8
I0511 10:11:39.105661 27527 net.cpp:100] Creating Layer fc8
I0511 10:11:39.105671 27527 net.cpp:434] fc8 <- fc7
I0511 10:11:39.105687 27527 net.cpp:408] fc8 -> fc8
I0511 10:11:39.107977 27527 net.cpp:150] Setting up fc8
I0511 10:11:39.108000 27527 net.cpp:157] Top shape: 256 15 (3840)
I0511 10:11:39.108011 27527 net.cpp:165] Memory required for data: 2221493248
I0511 10:11:39.108023 27527 layer_factory.hpp:77] Creating layer loss
I0511 10:11:39.108073 27527 net.cpp:100] Creating Layer loss
I0511 10:11:39.108083 27527 net.cpp:434] loss <- fc8
I0511 10:11:39.108094 27527 net.cpp:434] loss <- label
I0511 10:11:39.108114 27527 net.cpp:408] loss -> loss
I0511 10:11:39.108139 27527 layer_factory.hpp:77] Creating layer loss
…
I0511 10:11:39.109917 27527 net.cpp:322] The NetState phase (1) differed from the phase (0) specified by a rule in layer data
I0511 10:11:39.110172 27527 net.cpp:58] Initializing net from parameters: 
name: "alexnet10"
state {
  phase: TEST
}
layer {
  name: "data"
  type: "Data"
  top: "data"
  top: "label"
  include {
    phase: TEST
  }
  transform_param {
    mirror: false
    crop_size: 223
    mean_file: "../convert_leveldb/leveldb_backup/0508_224_merged (3rd copy)/vehcolor_mean_val.binaryproto"
  }
  data_param {
    source: "../convert_leveldb/leveldb_backup/0508_224_merged (3rd copy)/vehcolor_val_leveldb"
    batch_size: 256
    backend: LEVELDB
  }
}
layer {
  name: "conv1"
  type: "Convolution"
  bottom: "data"
  top: "conv1"
  param {
    lr_mult: 1
    decay_mult: 1
  }
  param {
    lr_mult: 2
    decay_mult: 0
  }
  convolution_param {
    num_output: 96
    pad: 2
    kernel_size: 11
    stride: 4
    weight_filler {
      type: "gaussian"
      std: 0.01
    }
    bias_filler {
      type: "constant"
      value: 1
    }
  }
}
layer {
  name: "relu1"
  type: "ReLU"
  bottom: "conv1"
  top: "conv1"
}
layer {
  name: "pool1"
  type: "Pooling"
  bottom: "conv1"
  top: "pool1"
  pooling_param {
    pool: MAX
    kernel_size: 3
    stride: 2
  }
}
layer {
  name: "norm1"
  type: "LRN"
  bottom: "pool1"
  top: "norm1"
  lrn_param {
    local_size: 5
    alpha: 0.0001
    beta: 0.75
  }
}
layer {
  name: "conv2_1"
  type: "Convolution"
  bottom: "norm1"
  top: "conv2_1"
  param {
    lr_mult: 1
    decay_mult: 1
  }
  param {
    lr_mult: 2
    decay_mult: 0
  }
  convolution_param {
    num_output: 256
    pad: 2
    kernel_size: 5
    group: 2
    weight_filler {
      type: "gaussian"
      std: 0.01
    }
    bias_filler {
      type: "constant"
      value: 1
    }
  }
}
layer {
  name: "relu2_1"
  type: "ReLU"
  bottom: "conv2_1"
  top: "conv2_1"
}
layer {
  name: "conv2_2"
  type: "Convolution"
  bottom: "conv2_1"
  top: "conv2_2"
  param {
    lr_mult: 1
    decay_mult: 1
  }
  param {
    lr_mult: 2
    decay_mult: 0
  }
  convolution_param {
    num_output: 256
    pad: 2
    kernel_size: 5
    group: 2
    weight_filler {
      type: "gaussian"
      std: 0.01
    }
    bias_filler {
      type: "constant"
      value: 1
    }
  }
}
layer {
  name: "relu2_2"
  type: "ReLU"
  bottom: "conv2_2"
  top: "conv2_2"
}
layer {
  name: "pool2"
  type: "Pooling"
  bottom: "conv2_2"
  top: "pool2"
  pooling_param {
    pool: MAX
    kernel_size: 3
    stride: 2
  }
}
layer {
  name: "norm2"
  type: "LRN"
  bottom: "pool2"
  top: "norm2"
  lrn_param {
    local_size: 5
    alpha: 0.0001
    beta: 0.75
  }
}
layer {
  name: "conv3"
  type: "Convolution"
  bottom: "norm2"
  top: "conv3"
  param {
    lr_mult: 1
    decay_mult: 1
  }
  param {
    lr_mult: 2
    decay_mult: 0
  }
  convolution_param {
    num_output: 384
    pad: 1
    kernel_size: 3
    weight_filler {
      type: "gaussian"
      std: 0.01
    }
    bias_filler {
      type: "constant"
      value: 1
    }
  }
}
layer {
  name: "relu3"
  type: "ReLU"
  bottom: "conv3"
  top: "conv3"
}
layer {
  name: "conv4"
  type: "Convolution"
  bottom: "conv3"
  top: "conv4"
  param {
    lr_mult: 1
    decay_mult: 1
  }
  param {
    lr_mult: 2
    decay_mult: 0
  }
  convolution_param {
    num_output: 384
    pad: 1
    kernel_size: 3
    group: 2
    weight_filler {
      type: "gaussian"
      std: 0.01
    }
    bias_filler {
      type: "constant"
      value: 1
    }
  }
}
layer {
  name: "relu4"
  type: "ReLU"
  bottom: "conv4"
  top: "conv4"
}
layer {
  name: "conv5_1"
  type: "Convolution"
  bottom: "conv4"
  top: "conv5_1"
  param {
    lr_mult: 1
    decay_mult: 1
  }
  param {
    lr_mult: 2
    decay_mult: 0
  }
  convolution_param {
    num_output: 256
    pad: 1
    kernel_size: 3
    group: 2
    weight_filler {
      type: "gaussian"
      std: 0.01
    }
    bias_filler {
      type: "constant"
      value: 1
    }
  }
}
layer {
  name: "relu5_1"
  type: "ReLU"
  bottom: "conv5_1"
  top: "conv5_1"
}
layer {
  name: "conv5_2"
  type: "Convolution"
  bottom: "conv5_1"
  top: "conv5_2"
  param {
    lr_mult: 1
    decay_mult: 1
  }
  param {
    lr_mult: 2
    decay_mult: 0
  }
  convolution_param {
    num_output: 256
    pad: 1
    kernel_size: 3
    group: 2
    weight_filler {
      type: "gaussian"
      std: 0.01
    }
    bias_filler {
      type: "constant"
      value: 1
    }
  }
}
layer {
  name: "relu5_2"
  type: "ReLU"
  bottom: "conv5_2"
  top: "conv5_2"
}
layer {
  name: "pool5"
  type: "Pooling"
  bottom: "conv5_2"
  top: "pool5"
  pooling_param {
    pool: MAX
    kernel_size: 3
    stride: 2
  }
}
layer {
  name: "fc6"
  type: "InnerProduct"
  bottom: "pool5"
  top: "fc6"
  param {
    lr_mult: 1
    decay_mult: 1
  }
  param {
    lr_mult: 2
    decay_mult: 0
  }
  inner_product_param {
    num_output: 4096
    weight_filler {
      type: "gaussian"
      std: 0.005
    }
    bias_filler {
      type: "constant"
      value: 1
    }
  }
}
layer {
  name: "relu6"
  type: "ReLU"
  bottom: "fc6"
  top: "fc6"
}
layer {
  name: "drop6"
  type: "Dropout"
  bottom: "fc6"
  top: "fc6"
  dropout_param {
    dropout_ratio: 0.5
  }
}
layer {
  name: "fc7"
  type: "InnerProduct"
  bottom: "fc6"
  top: "fc7"
  param {
    lr_mult: 1
    decay_mult: 1
  }
  param {
    lr_mult: 2
    decay_mult: 0
  }
  inner_product_param {
    num_output: 4096
    weight_filler {
      type: "gaussian"
      std: 0.005
    }
    bias_filler {
      type: "constant"
      value: 1
    }
  }
}
layer {
  name: "relu7"
  type: "ReLU"
  bottom: "fc7"
  top: "fc7"
}
layer {
  name: "drop7"
  type: "Dropout"
  bottom: "fc7"
  top: "fc7"
  dropout_param {
    dropout_ratio: 0.5
  }
}
layer {
  name: "fc8"
  type: "InnerProduct"
  bottom: "fc7"
  top: "fc8"
  param {
    lr_mult: 1
    decay_mult: 1
  }
  param {
    lr_mult: 2
    decay_mult: 0
  }
  inner_product_param {
    num_output: 15
    weight_filler {
      type: "gaussian"
      std: 0.01
    }
    bias_filler {
      type: "constant"
      value: 0
    }
  }
}
layer {
  name: "loss"
  type: "SoftmaxWithLoss"
  bottom: "fc8"
  bottom: "label"
  top: "loss"
}
layer {
  name: "accuracy"
  type: "Accuracy"
  bottom: "fc8"
  bottom: "label"
  top: "accuracy"
  include {
    phase: TEST
  }
}
layer {
  name: "accuracy/top-2"
  type: "Accuracy"
  bottom: "fc8"
  bottom: "label"
  top: "accuracy-top2"
  include {
    phase: TEST
  }
  accuracy_param {
    top_k: 2
  }
}
layer {
  name: "accuracy/top-3"
  type: "Accuracy"
  bottom: "fc8"
  bottom: "label"
  top: "accuracy-top3"
  include {
    phase: TEST
  }
  accuracy_param {
    top_k: 3
  }
}
layer {
  name: "accuracy/top-4"
  type: "Accuracy"
  bottom: "fc8"
  bottom: "label"
  top: "accuracy-top4"
  include {
    phase: TEST
  }
  accuracy_param {
    top_k: 4
  }
}
layer {
  name: "accuracy/top-5"
  type: "Accuracy"
  bottom: "fc8"
  bottom: "label"
  top: "accuracy-top5"
  include {
    phase: TEST
  }
  accuracy_param {
    top_k: 5
  }
}
I0511 10:11:39.111867 27527 layer_factory.hpp:77] Creating layer data
I0511 10:11:39.112185 27527 net.cpp:100] Creating Layer data
I0511 10:11:39.112203 27527 net.cpp:408] data -> data
I0511 10:11:39.112231 27527 net.cpp:408] data -> label
I0511 10:11:39.112247 27527 data_transformer.cpp:25] Loading mean file from: ../convert_leveldb/leveldb_backup/0508_224_merged (3rd copy)/vehcolor_mean_val.binaryproto
I0511 10:11:39.153869 27580 db_leveldb.cpp:18] Opened leveldb ../convert_leveldb/leveldb_backup/0508_224_merged (3rd copy)/vehcolor_val_leveldb
I0511 10:11:39.154675 27527 data_layer.cpp:41] output data size: 256,3,223,223
I0511 10:11:39.494313 27527 net.cpp:150] Setting up data
I0511 10:11:39.494417 27527 net.cpp:157] Top shape: 256 3 223 223 (38191872)
I0511 10:11:39.494433 27527 net.cpp:157] Top shape: 256 (256)
I0511 10:11:39.494443 27527 net.cpp:165] Memory required for data: 152768512
I0511 10:11:39.494458 27527 layer_factory.hpp:77] Creating layer label_data_1_split
I0511 10:11:39.494516 27527 net.cpp:100] Creating Layer label_data_1_split
I0511 10:11:39.494549 27527 net.cpp:434] label_data_1_split <- label
I0511 10:11:39.494568 27527 net.cpp:408] label_data_1_split -> label_data_1_split_0
I0511 10:11:39.494587 27527 net.cpp:408] label_data_1_split -> label_data_1_split_1
I0511 10:11:39.494601 27527 net.cpp:408] label_data_1_split -> label_data_1_split_2
I0511 10:11:39.494616 27527 net.cpp:408] label_data_1_split -> label_data_1_split_3
I0511 10:11:39.494632 27527 net.cpp:408] label_data_1_split -> label_data_1_split_4
I0511 10:11:39.494655 27527 net.cpp:408] label_data_1_split -> label_data_1_split_5
I0511 10:11:39.494889 27527 net.cpp:150] Setting up label_data_1_split
I0511 10:11:39.494910 27527 net.cpp:157] Top shape: 256 (256)
I0511 10:11:39.494920 27527 net.cpp:157] Top shape: 256 (256)
I0511 10:11:39.494930 27527 net.cpp:157] Top shape: 256 (256)
I0511 10:11:39.494940 27527 net.cpp:157] Top shape: 256 (256)
I0511 10:11:39.494948 27527 net.cpp:157] Top shape: 256 (256)
I0511 10:11:39.494957 27527 net.cpp:157] Top shape: 256 (256)
I0511 10:11:39.494966 27527 net.cpp:165] Memory required for data: 152774656
I0511 10:11:39.494976 27527 layer_factory.hpp:77] Creating layer conv1
I0511 10:11:39.495038 27527 net.cpp:100] Creating Layer conv1
I0511 10:11:39.495081 27527 net.cpp:434] conv1 <- data
I0511 10:11:39.495096 27527 net.cpp:408] conv1 -> conv1
I0511 10:11:39.496798 27527 net.cpp:150] Setting up conv1
I0511 10:11:39.496820 27527 net.cpp:157] Top shape: 256 96 55 55 (74342400)
I0511 10:11:39.496830 27527 net.cpp:165] Memory required for data: 450144256
I0511 10:11:39.496858 27527 layer_factory.hpp:77] Creating layer relu1
I0511 10:11:39.496893 27527 net.cpp:100] Creating Layer relu1
I0511 10:11:39.496904 27527 net.cpp:434] relu1 <- conv1
I0511 10:11:39.496927 27527 net.cpp:395] relu1 -> conv1 (in-place)
I0511 10:11:39.496943 27527 net.cpp:150] Setting up relu1
I0511 10:11:39.496954 27527 net.cpp:157] Top shape: 256 96 55 55 (74342400)
I0511 10:11:39.496963 27527 net.cpp:165] Memory required for data: 747513856
I0511 10:11:39.496978 27527 layer_factory.hpp:77] Creating layer pool1
I0511 10:11:39.497012 27527 net.cpp:100] Creating Layer pool1
I0511 10:11:39.497023 27527 net.cpp:434] pool1 <- conv1
I0511 10:11:39.497035 27527 net.cpp:408] pool1 -> pool1
I0511 10:11:39.508568 27527 net.cpp:150] Setting up pool1
I0511 10:11:39.508612 27527 net.cpp:157] Top shape: 256 96 27 27 (17915904)
I0511 10:11:39.508623 27527 net.cpp:165] Memory required for data: 819177472
I0511 10:11:39.508635 27527 layer_factory.hpp:77] Creating layer norm1
I0511 10:11:39.508683 27527 net.cpp:100] Creating Layer norm1
I0511 10:11:39.508694 27527 net.cpp:434] norm1 <- pool1
I0511 10:11:39.508708 27527 net.cpp:408] norm1 -> norm1
I0511 10:11:39.508817 27527 net.cpp:150] Setting up norm1
I0511 10:11:39.508834 27527 net.cpp:157] Top shape: 256 96 27 27 (17915904)
I0511 10:11:39.508843 27527 net.cpp:165] Memory required for data: 890841088
I0511 10:11:39.508852 27527 layer_factory.hpp:77] Creating layer conv2_1
I0511 10:11:39.508874 27527 net.cpp:100] Creating Layer conv2_1
I0511 10:11:39.508885 27527 net.cpp:434] conv2_1 <- norm1
I0511 10:11:39.508908 27527 net.cpp:408] conv2_1 -> conv2_1
I0511 10:11:39.529191 27527 net.cpp:150] Setting up conv2_1
I0511 10:11:39.529259 27527 net.cpp:157] Top shape: 256 256 27 27 (47775744)
I0511 10:11:39.529278 27527 net.cpp:165] Memory required for data: 1081944064
I0511 10:11:39.529307 27527 layer_factory.hpp:77] Creating layer relu2_1
I0511 10:11:39.529336 27527 net.cpp:100] Creating Layer relu2_1
I0511 10:11:39.529353 27527 net.cpp:434] relu2_1 <- conv2_1
I0511 10:11:39.529373 27527 net.cpp:395] relu2_1 -> conv2_1 (in-place)
I0511 10:11:39.529399 27527 net.cpp:150] Setting up relu2_1
I0511 10:11:39.529417 27527 net.cpp:157] Top shape: 256 256 27 27 (47775744)
I0511 10:11:39.529433 27527 net.cpp:165] Memory required for data: 1273047040
I0511 10:11:39.529464 27527 layer_factory.hpp:77] Creating layer conv2_2
I0511 10:11:39.529498 27527 net.cpp:100] Creating Layer conv2_2
I0511 10:11:39.529520 27527 net.cpp:434] conv2_2 <- conv2_1
I0511 10:11:39.529569 27527 net.cpp:408] conv2_2 -> conv2_2
I0511 10:11:39.572563 27527 net.cpp:150] Setting up conv2_2
I0511 10:11:39.572620 27527 net.cpp:157] Top shape: 256 256 27 27 (47775744)
I0511 10:11:39.572633 27527 net.cpp:165] Memory required for data: 1464150016
I0511 10:11:39.572659 27527 layer_factory.hpp:77] Creating layer relu2_2
I0511 10:11:39.572685 27527 net.cpp:100] Creating Layer relu2_2
I0511 10:11:39.572700 27527 net.cpp:434] relu2_2 <- conv2_2
I0511 10:11:39.572717 27527 net.cpp:395] relu2_2 -> conv2_2 (in-place)
I0511 10:11:39.572738 27527 net.cpp:150] Setting up relu2_2
I0511 10:11:39.572753 27527 net.cpp:157] Top shape: 256 256 27 27 (47775744)
I0511 10:11:39.573061 27527 net.cpp:165] Memory required for data: 1655252992
I0511 10:11:39.573081 27527 layer_factory.hpp:77] Creating layer pool2
I0511 10:11:39.573101 27527 net.cpp:100] Creating Layer pool2
I0511 10:11:39.573114 27527 net.cpp:434] pool2 <- conv2_2
I0511 10:11:39.573132 27527 net.cpp:408] pool2 -> pool2
I0511 10:11:39.573223 27527 net.cpp:150] Setting up pool2
I0511 10:11:39.573242 27527 net.cpp:157] Top shape: 256 256 13 13 (11075584)
I0511 10:11:39.573254 27527 net.cpp:165] Memory required for data: 1699555328
I0511 10:11:39.573267 27527 layer_factory.hpp:77] Creating layer norm2
I0511 10:11:39.573321 27527 net.cpp:100] Creating Layer norm2
I0511 10:11:39.573333 27527 net.cpp:434] norm2 <- pool2
I0511 10:11:39.573350 27527 net.cpp:408] norm2 -> norm2
I0511 10:11:39.573410 27527 net.cpp:150] Setting up norm2
I0511 10:11:39.573428 27527 net.cpp:157] Top shape: 256 256 13 13 (11075584)
I0511 10:11:39.573441 27527 net.cpp:165] Memory required for data: 1743857664
I0511 10:11:39.573463 27527 layer_factory.hpp:77] Creating layer conv3
I0511 10:11:39.573499 27527 net.cpp:100] Creating Layer conv3
I0511 10:11:39.573513 27527 net.cpp:434] conv3 <- norm2
I0511 10:11:39.573529 27527 net.cpp:408] conv3 -> conv3
I0511 10:11:39.611220 27527 net.cpp:150] Setting up conv3
I0511 10:11:39.611270 27527 net.cpp:157] Top shape: 256 384 13 13 (16613376)
I0511 10:11:39.611281 27527 net.cpp:165] Memory required for data: 1810311168
I0511 10:11:39.611297 27527 layer_factory.hpp:77] Creating layer relu3
I0511 10:11:39.611318 27527 net.cpp:100] Creating Layer relu3
I0511 10:11:39.611330 27527 net.cpp:434] relu3 <- conv3
I0511 10:11:39.611344 27527 net.cpp:395] relu3 -> conv3 (in-place)
I0511 10:11:39.611362 27527 net.cpp:150] Setting up relu3
I0511 10:11:39.611373 27527 net.cpp:157] Top shape: 256 384 13 13 (16613376)
I0511 10:11:39.611383 27527 net.cpp:165] Memory required for data: 1876764672
I0511 10:11:39.611393 27527 layer_factory.hpp:77] Creating layer conv4
I0511 10:11:39.611414 27527 net.cpp:100] Creating Layer conv4
I0511 10:11:39.611424 27527 net.cpp:434] conv4 <- conv3
I0511 10:11:39.611440 27527 net.cpp:408] conv4 -> conv4
I0511 10:11:39.636510 27527 net.cpp:150] Setting up conv4
I0511 10:11:39.636559 27527 net.cpp:157] Top shape: 256 384 13 13 (16613376)
I0511 10:11:39.636569 27527 net.cpp:165] Memory required for data: 1943218176
I0511 10:11:39.636602 27527 layer_factory.hpp:77] Creating layer relu4
I0511 10:11:39.636625 27527 net.cpp:100] Creating Layer relu4
I0511 10:11:39.636636 27527 net.cpp:434] relu4 <- conv4
I0511 10:11:39.636651 27527 net.cpp:395] relu4 -> conv4 (in-place)
I0511 10:11:39.636667 27527 net.cpp:150] Setting up relu4
I0511 10:11:39.636677 27527 net.cpp:157] Top shape: 256 384 13 13 (16613376)
I0511 10:11:39.636687 27527 net.cpp:165] Memory required for data: 2009671680
I0511 10:11:39.636695 27527 layer_factory.hpp:77] Creating layer conv5_1
I0511 10:11:39.636716 27527 net.cpp:100] Creating Layer conv5_1
I0511 10:11:39.636725 27527 net.cpp:434] conv5_1 <- conv4
I0511 10:11:39.636739 27527 net.cpp:408] conv5_1 -> conv5_1
I0511 10:11:39.665024 27527 net.cpp:150] Setting up conv5_1
I0511 10:11:39.665081 27527 net.cpp:157] Top shape: 256 256 13 13 (11075584)
I0511 10:11:39.665092 27527 net.cpp:165] Memory required for data: 2053974016
I0511 10:11:39.665117 27527 layer_factory.hpp:77] Creating layer relu5_1
I0511 10:11:39.665139 27527 net.cpp:100] Creating Layer relu5_1
I0511 10:11:39.665151 27527 net.cpp:434] relu5_1 <- conv5_1
I0511 10:11:39.665168 27527 net.cpp:395] relu5_1 -> conv5_1 (in-place)
I0511 10:11:39.665187 27527 net.cpp:150] Setting up relu5_1
I0511 10:11:39.665199 27527 net.cpp:157] Top shape: 256 256 13 13 (11075584)
I0511 10:11:39.665207 27527 net.cpp:165] Memory required for data: 2098276352
I0511 10:11:39.665216 27527 layer_factory.hpp:77] Creating layer conv5_2
I0511 10:11:39.665240 27527 net.cpp:100] Creating Layer conv5_2
I0511 10:11:39.665248 27527 net.cpp:434] conv5_2 <- conv5_1
I0511 10:11:39.665261 27527 net.cpp:408] conv5_2 -> conv5_2
I0511 10:11:39.677158 27527 net.cpp:150] Setting up conv5_2
I0511 10:11:39.677206 27527 net.cpp:157] Top shape: 256 256 13 13 (11075584)
I0511 10:11:39.677215 27527 net.cpp:165] Memory required for data: 2142578688
I0511 10:11:39.677230 27527 layer_factory.hpp:77] Creating layer relu5_2
I0511 10:11:39.677261 27527 net.cpp:100] Creating Layer relu5_2
I0511 10:11:39.677273 27527 net.cpp:434] relu5_2 <- conv5_2
I0511 10:11:39.677285 27527 net.cpp:395] relu5_2 -> conv5_2 (in-place)
I0511 10:11:39.677299 27527 net.cpp:150] Setting up relu5_2
I0511 10:11:39.677309 27527 net.cpp:157] Top shape: 256 256 13 13 (11075584)
I0511 10:11:39.677346 27527 net.cpp:165] Memory required for data: 2186881024
I0511 10:11:39.677356 27527 layer_factory.hpp:77] Creating layer pool5
I0511 10:11:39.677368 27527 net.cpp:100] Creating Layer pool5
I0511 10:11:39.677377 27527 net.cpp:434] pool5 <- conv5_2
I0511 10:11:39.677388 27527 net.cpp:408] pool5 -> pool5
I0511 10:11:39.677443 27527 net.cpp:150] Setting up pool5
I0511 10:11:39.677456 27527 net.cpp:157] Top shape: 256 256 6 6 (2359296)
I0511 10:11:39.677464 27527 net.cpp:165] Memory required for data: 2196318208
I0511 10:11:39.677474 27527 layer_factory.hpp:77] Creating layer fc6
I0511 10:11:39.677489 27527 net.cpp:100] Creating Layer fc6
I0511 10:11:39.677496 27527 net.cpp:434] fc6 <- pool5
I0511 10:11:39.677508 27527 net.cpp:408] fc6 -> fc6
I0511 10:11:40.937553 27527 net.cpp:150] Setting up fc6
I0511 10:11:40.937628 27527 net.cpp:157] Top shape: 256 4096 (1048576)
I0511 10:11:40.937638 27527 net.cpp:165] Memory required for data: 2200512512
I0511 10:11:40.937660 27527 layer_factory.hpp:77] Creating layer relu6
I0511 10:11:40.937685 27527 net.cpp:100] Creating Layer relu6
I0511 10:11:40.937697 27527 net.cpp:434] relu6 <- fc6
I0511 10:11:40.937711 27527 net.cpp:395] relu6 -> fc6 (in-place)
I0511 10:11:40.937726 27527 net.cpp:150] Setting up relu6
I0511 10:11:40.937736 27527 net.cpp:157] Top shape: 256 4096 (1048576)
I0511 10:11:40.937742 27527 net.cpp:165] Memory required for data: 2204706816
I0511 10:11:40.937750 27527 layer_factory.hpp:77] Creating layer drop6
I0511 10:11:40.937767 27527 net.cpp:100] Creating Layer drop6
I0511 10:11:40.937774 27527 net.cpp:434] drop6 <- fc6
I0511 10:11:40.937784 27527 net.cpp:395] drop6 -> fc6 (in-place)
I0511 10:11:40.937810 27527 net.cpp:150] Setting up drop6
I0511 10:11:40.937842 27527 net.cpp:157] Top shape: 256 4096 (1048576)
I0511 10:11:40.937850 27527 net.cpp:165] Memory required for data: 2208901120
I0511 10:11:40.937860 27527 layer_factory.hpp:77] Creating layer fc7
I0511 10:11:40.937875 27527 net.cpp:100] Creating Layer fc7
I0511 10:11:40.937893 27527 net.cpp:434] fc7 <- fc6
I0511 10:11:40.937904 27527 net.cpp:408] fc7 -> fc7
I0511 10:11:41.460103 27527 net.cpp:150] Setting up fc7
I0511 10:11:41.460160 27527 net.cpp:157] Top shape: 256 4096 (1048576)
I0511 10:11:41.460170 27527 net.cpp:165] Memory required for data: 2213095424
I0511 10:11:41.460206 27527 layer_factory.hpp:77] Creating layer relu7
I0511 10:11:41.460228 27527 net.cpp:100] Creating Layer relu7
I0511 10:11:41.460242 27527 net.cpp:434] relu7 <- fc7
I0511 10:11:41.460254 27527 net.cpp:395] relu7 -> fc7 (in-place)
I0511 10:11:41.460270 27527 net.cpp:150] Setting up relu7
I0511 10:11:41.460279 27527 net.cpp:157] Top shape: 256 4096 (1048576)
I0511 10:11:41.460288 27527 net.cpp:165] Memory required for data: 2217289728
I0511 10:11:41.460295 27527 layer_factory.hpp:77] Creating layer drop7
I0511 10:11:41.460309 27527 net.cpp:100] Creating Layer drop7
I0511 10:11:41.460317 27527 net.cpp:434] drop7 <- fc7
I0511 10:11:41.460326 27527 net.cpp:395] drop7 -> fc7 (in-place)
I0511 10:11:41.460353 27527 net.cpp:150] Setting up drop7
I0511 10:11:41.460364 27527 net.cpp:157] Top shape: 256 4096 (1048576)
I0511 10:11:41.460372 27527 net.cpp:165] Memory required for data: 2221484032
I0511 10:11:41.460379 27527 layer_factory.hpp:77] Creating layer fc8
I0511 10:11:41.460394 27527 net.cpp:100] Creating Layer fc8
I0511 10:11:41.460402 27527 net.cpp:434] fc8 <- fc7
I0511 10:11:41.460413 27527 net.cpp:408] fc8 -> fc8
I0511 10:11:41.462386 27527 net.cpp:150] Setting up fc8
I0511 10:11:41.462404 27527 net.cpp:157] Top shape: 256 15 (3840)
I0511 10:11:41.462412 27527 net.cpp:165] Memory required for data: 2221499392
I0511 10:11:41.462424 27527 layer_factory.hpp:77] Creating layer fc8_fc8_0_split
I0511 10:11:41.462438 27527 net.cpp:100] Creating Layer fc8_fc8_0_split
I0511 10:11:41.462446 27527 net.cpp:434] fc8_fc8_0_split <- fc8
I0511 10:11:41.462456 27527 net.cpp:408] fc8_fc8_0_split -> fc8_fc8_0_split_0
I0511 10:11:41.462468 27527 net.cpp:408] fc8_fc8_0_split -> fc8_fc8_0_split_1
I0511 10:11:41.462481 27527 net.cpp:408] fc8_fc8_0_split -> fc8_fc8_0_split_2
I0511 10:11:41.462543 27527 net.cpp:408] fc8_fc8_0_split -> fc8_fc8_0_split_3
I0511 10:11:41.462555 27527 net.cpp:408] fc8_fc8_0_split -> fc8_fc8_0_split_4
I0511 10:11:41.462566 27527 net.cpp:408] fc8_fc8_0_split -> fc8_fc8_0_split_5
I0511 10:11:41.462647 27527 net.cpp:150] Setting up fc8_fc8_0_split
I0511 10:11:41.462661 27527 net.cpp:157] Top shape: 256 15 (3840)
I0511 10:11:41.462669 27527 net.cpp:157] Top shape: 256 15 (3840)
I0511 10:11:41.462677 27527 net.cpp:157] Top shape: 256 15 (3840)
I0511 10:11:41.462685 27527 net.cpp:157] Top shape: 256 15 (3840)
I0511 10:11:41.462692 27527 net.cpp:157] Top shape: 256 15 (3840)
I0511 10:11:41.462700 27527 net.cpp:157] Top shape: 256 15 (3840)
I0511 10:11:41.462707 27527 net.cpp:165] Memory required for data: 2221591552
I0511 10:11:41.462714 27527 layer_factory.hpp:77] Creating layer loss
I0511 10:11:41.462725 27527 net.cpp:100] Creating Layer loss
I0511 10:11:41.462733 27527 net.cpp:434] loss <- fc8_fc8_0_split_0
I0511 10:11:41.462743 27527 net.cpp:434] loss <- label_data_1_split_0
I0511 10:11:41.462755 27527 net.cpp:408] loss -> loss
…
